cpp/onnx/pfe.onnx (onnx, 15531 bytes, 5 tensors)

pfn_layers.0.norm.weight f4 [64]
0.05082504 0.10401957 0.15251559 0.16694944 0.12890458 0.14865078 0.34239393 0.11115539
0.28787622 0.17949723 0.25258714 0.13384318 0.24934705 0.076927654 0.42313015 0.468698
0.22072154 0.38346633 0.005528761 0.28442758 0.08844922 0.16503717 0.35499385 0.26974937
0.5737238 0.14386564 0.25373086 0.110632055 0.18718086 0.30267113 0.50790787 0.38961643
0.4297653 1.8577057 0.33926645 0.136247 0.1038153 0.20798668 0.28132698 0.67110324
0.12602344 -0.005500885 0.15875573 0.25604197 0.34684417 0.03927895 0.20920143 0.15743153
0.17854969 0.01423061 0.36368722 0.17946969 1.3121741 0.27326426 0.36308795 0.15057757
0.27104723 0.39633253 0.19545242 0.9255156 0.2174888 0.1691736 0.51051706 0.31315622
00000000: eb2d 503d 3608 d53d 0c2d 1c3e cbf4 2a3e
00000010: 90ff 033e e937 183e 424e af3e 70a5 e33d
00000020: 8364 933e 1fce 373e 1a53 813e 300e 093e
00000030: d554 7f3e 3f8c 9d3d 84a4 d83e 2ff9 ef3e
00000040: d404 623e b355 c43e 9c2a b53b 7ea0 913e
00000050: dd24 b53d 81ff 283e c1c1 b53e 971c 8a3e
00000060: 90df 123f 8451 133e 03e9 813e 0f93 e23d
00000070: 57ac 3f3e b6f7 9a3e 4006 023f ce7b c73e
00000080: 330a dc3e 4dc9 ed3f 55b4 ad3e 5584 0b3e
00000090: 1e9d d43d 76fa 543e 170a 903e 6ccd 2b3f
000000a0: 4a0c 013e c540 b4bb dd90 223e ef17 833e
000000b0: 8f95 b13e f7e2 203d e638 563e bb35 213e
000000c0: bbd5 363e 8127 693c 3635 ba3e e7c6 373e
000000d0: 52f5 a73f 4be9 8b3e aae6 b93e 0231 1a3e
000000e0: b4c6 8a3e 19ec ca3e ae24 483e 97ee 6c3f
000000f0: 62b5 5e3e d83b 2d3e 3fb1 023f 0356 a03e

pfn_layers.0.norm.bias f4 [64]
-0.2990541 -0.10132856 -0.12520419 -0.07720597 -0.066999175 -0.042904608 -0.090415664 -0.034464445
-0.079390705 -0.0490027 -0.0717983 -0.40019837 -0.10373623 -0.09654009 -0.14393845 0.33948106
-0.08661701 -0.6143765 -0.2766743 0.021393757 -0.028334757 -0.31283396 -0.09049187 -0.16423886
-0.11114716 -0.33724174 -0.1745393 -0.032060474 -0.10638977 -0.102089316 -0.072582856 -0.14104939
0.007869398 -0.16299784 -0.089139454 -0.7929148 -0.03029578 -0.106849104 0.13504645 -0.20758912
-0.03722221 -0.17405614 -0.54838854 -0.5214976 -0.45720214 -0.41883463 -0.122288376 -0.21843036
-0.11452726 -0.3421828 -0.55369043 -0.93401885 -0.4176122 -0.31652904 0.28874844 -0.2900219
-1.121829 -1.5408123 -0.07026063 -0.25155222 -0.04566481 -0.63326263 -0.2024592 -0.231964
00000000: 9e1d 99be 5985 cfbd 8735 00be 2a1e 9ebd
00000010: dd36 89bd bebc 2fbd d92b b9bd 972a 0dbd
00000020: 9897 a2bd 0eb7 48bd fd0a 93bd cde6 ccbe
00000030: a973 d4bd d0b6 c5bd 9a64 13be 76d0 ad3e
00000040: 4264 b1bd c747 1dbf 41a8 8dbe f641 af3c
00000050: 4b1e e8bc c62b a0be cd53 b9bd 3b2e 28be
00000060: 1fa1 e3bd f3aa acbe 6eba 32be d851 03bd
00000070: e1e2 d9bd 3414 d1bd 52a6 94bd 406f 10be
00000080: a6ee 003c e8e8 26be bf8e b6bd 77fc 4abf
00000090: db2e f8bc b4d3 dabd 9e49 0a3e 3e92 54be
000000a0: 5176 18bd c63b 32be 3163 0cbf de80 05bf
000000b0: 6616 eabe 7e71 d6be 5472 fabd 35ac 5fbe
000000c0: 458d eabd 9532 afbe a8be 0dbf dc1b 6fbf
000000d0: 44d1 d5be 1810 a2be d6d6 933e c07d 94be
000000e0: 1898 8fbf 5639 c5bf cee4 8fbd 74cb 80be
000000f0: 060b 3bbd 801d 22bf 7751 4fbe f987 6dbe

pfn_layers.0.norm.running_mean f4 [64]
-0.03310868 -0.1505459 -0.22373861 -0.4854166 -1.0925725 -0.068408154 -0.13207829 -0.05215478
-0.30717105 -0.20561592 -0.1998616 -0.03911856 -0.29013515 -0.16819628 -0.222766 -0.2740099
-0.37449193 0.009767099 0.17118618 -0.0025545675 -0.29723558 0.33084604 -0.2626091 -0.51869553
-0.04174117 -0.03519849 -0.046069764 0.058007788 -0.0036010395 -0.41226298 -0.09724083 -0.15963948
-0.005377743 -0.34222412 -0.19823116 1.9144949 0.0052997083 -0.34583446 -0.50996596 -0.14345655
-0.25709617 -0.055303514 0.20580989 0.022026407 -0.008206967 -0.06826551 -0.3950056 -0.4325295
-0.013626131 0.37477246 0.021351159 0.03543597 -0.28801474 0.046046376 -0.3241625 0.4634495
0.049840506 0.021061545 -0.16340393 -0.21558203 -0.054383375 0.29675025 0.026971985 0.21049035
00000000: f89c 07bd b428 1abe bc1b 65be 8688 f8be
00000010: 6ad9 8bbf 9319 8cbd 883f 07be 40a0 55bd
00000020: 8645 9dbe fb8c 52be 85a8 4cbe c83a 20bd
00000030: 988c 94be a53b 2cbe c51c 64be 074b 8cbe
00000040: 68bd bfbe 2f06 203c 6e4b 2f3e 886a 27bb
00000050: 432f 98be a764 a93e b374 86be 3bc9 04bf
00000060: caf8 2abd 4b2c 10bd a6b3 3cbd 9399 6d3d
00000070: 6bff 6bbb 2214 d3be 3326 c7bd 8878 23be
00000080: c737 b0bb 0038 afbe 1cfd 4abe 2b0e f53f
00000090: 2da9 ad3b 3711 b1be 218d 02bf 46e6 12be
000000a0: 1ca2 83be f085 62bd d4bf 523e b970 b43c
000000b0: 8476 06bc cace 8bbd 2d3e cabe 8274 ddbe
000000c0: 2340 5fbc 2de2 bf3e a0e8 ae3c 4f25 113d
000000d0: ab76 93be 209b 3c3d a1f8 a5be 4149 ed3e
000000e0: 8f25 4c3d 4389 ac3c 5c53 27be 89c1 5cbe
000000f0: 1ac1 5ebd a6ef 973e 5af4 dc3c c88a 573e

pfn_layers.0.norm.running_var f4 [64]
0.019622123 0.30787918 0.62694323 3.004006 15.496045 0.17102219 0.44630763 0.4321679
1.239413 0.72501767 0.85420376 0.37135005 1.0883126 0.3353233 0.6120341 0.8287618
2.3287299 0.028015975 0.4389644 0.17852527 1.4412149 1.257482 0.8831096 3.5236585
0.068871774 0.37559506 0.06397227 0.5882197 0.13894643 2.5065057 1.0118434 0.40608755
2.3235357 1.3766583 0.8945372 47.086018 4.6093187 1.5196091 3.157494 0.27985865
1.6608512 0.7967756 0.5208609 0.024190035 0.04252709 0.114287265 2.048452 2.1665633
0.07903825 1.7038021 0.023231128 0.07960564 1.1041244 0.04284009 1.3383305 2.4168887
0.05248324 0.03693812 0.49523863 0.77631694 0.10815926 0.92975485 0.86089087 0.6068946
00000000: 93be a03c 57a2 9d3e 5a7f 203f a241 4040
00000010: cdef 7741 7120 2f3e 6f82 e43e 1c45 dd3e
00000020: 16a5 9e3f c29a 393f 19ad 5a3f 9821 be3e
00000030: d44d 8b3f 7faf ab3e 44ae 1c3f bc29 543f
00000040: e909 1540 c281 e53c f1bf e03e 54cf 363e
00000050: bb79 b83f 2cf5 a03f 7913 623f 9f83 6140
00000060: a50c 8d3d ff4d c03e e503 833d 9195 163f
00000070: f947 0e3e 976a 2040 1684 813f b5ea cf3e
00000080: cfb4 1440 5736 b03f 6400 653f 1558 3c42
00000090: 8a7f 9340 8d82 c23f 6214 4a40 a249 8f3e
000000a0: c696 d43f 7cf9 4b3f 2457 053f 2e2a c63c
000000b0: e330 2e3d 710f ea3d d619 0340 f9a8 0a40
000000c0: cede a13d 3016 da3f 354f be3c 4808 a33d
000000d0: f353 8d3f 1779 2f3d 6a4e ab3f 4eae 1a40
000000e0: aaf8 563d 6d4c 173d eb8f fd3e b5bc 463f
000000f0: 9a82 dd3d 6a04 6e3f 5863 5c3f 725d 1b3f

16 f4 [10, 64]
-0.028852142 -0.10625957 -0.14216699 -0.3193049 -0.7310927 -0.05226969 -0.10702478 0.06244553
-0.1893858 -0.05983745 -0.18229999 0.07068582 -0.19315791 -0.10135064 -0.1229396 -0.13775258
-0.24199995 0.018433813 0.11174439 0.019134548 -0.12864462 0.17987667 -0.13257967 -0.34906515
-0.0013497875 0.0733982 -0.036115687 -0.014938447 -0.025027638 -0.23998404 0.023479426 -0.0077561066
0.0016084617 -0.02588816 -0.1868009 1.2810364 -0.009268382 -0.22781761 -0.30707717 -0.0013551669
-0.16660929 -0.03817935 0.07427315 0.014242509 0.015069269 -0.07118533 -0.2678019 -0.2502403
-0.029740948 0.2314128 0.018397871 0.022971613 -0.005622143 0.022293642 -0.19858745 0.24926275
0.014666077 0.026723439 -0.011310515 0.01850398 -0.08624696 0.12178504 0.018371742 0.02295371
-0.0020066504 0.009268056 0.0066959867 0.0148062175 -0.024288017 -0.08989359 0.012539814 0.12998372
0.08613897 0.1295255 0.04527955 0.05152691 -0.006558479 0.009868411 0.013593244 0.010748375
-0.2397465 -0.00081413117 0.08248775 -0.0014574991 -0.23127516 -0.06604121 -0.079627536 0.021161282
-6.096977e-05 -0.09886962 0.0140352445 0.22607973 -0.06452785 0.22924758 0.0005769907 0.018071739
-0.001496354 -0.0018914534 -0.05928525 0.008261976 -0.6717655 -0.005207295 0.016944708 -0.0021313096
0.28480753 0.2735842 -0.059914123 -0.00020481441 0.0010363423 -0.017754816 0.00441548 -0.030050648
0.05686585 -0.042938087 0.00038117485 -0.0016659226 -0.0007281385 -0.00075618573 0.019734297 0.077568024
-0.00053838897 -0.0011499244 -0.07174277 -0.0011625928 -0.002859433 0.031037845 0.0052777226 0.0020901926
-0.04123783 -0.07199227 0.1623435 0.0889881 0.087543584 0.17984818 -0.20563856 1.0829694
0.32005128 0.88767487 -0.5000939 0.9201108 0.025033576 0.09872569 0.36552417 0.59717673
0.1519524 0.24700078 -0.028059151 0.024253467 0.75840545 -0.23904505 0.5045352 -0.04972584
-0.6673387 1.0210502 0.27533942 -0.49045154 -0.20065804 0.40071663 1.0593302 1.2207036
0.07277792 2.8752239 -0.4281879 0.03094265 -0.14526743 0.060147922 0.46392077 0.5391662
0.21871106 -0.02384655 -0.27810234 0.11268623 0.41791844 -0.0071279895 -0.07221455 0.5274217
-0.20187597 -0.1902746 0.16817227 0.033781227 2.400017 -0.020922946 0.25479284 -0.38240197
0.42301565 0.9251933 1.1913673 1.993032 -0.47971073 -0.45264664 0.39995602 -1.0875199
0.17957352 -0.01931147 0.20085368 -0.0018555763 0.09461353 1.2128719 -0.29714397 -0.5131081
0.78249586 -0.04173392 0.3023543 -1.052769 -0.024227176 -0.19621684 0.4295174 -0.24097073
0.018138373 0.49459642 0.11122774 -0.4593655 -0.6857978 1.198061 0.035967324 -0.24008563
-4.23128 -0.86572355 1.6494783 0.9315083 0.045232754 -0.22210172 0.6648826 -0.017339237
-0.0017284045 1.1507146 0.8641127 0.25373906 -0.6385781 0.020755082 -0.1836084 -2.7378893
0.7331811 0.093356736 1.965663 0.54111457 0.77040124 1.3390744 -0.20943055 0.08177182
0.19783446 0.20517749 0.5290613 0.11391432 0.074264474 0.35431078 -0.23053136 1.7467607
2.5633745 3.092363 -0.06282985 -0.22277154 0.9238271 2.1113393 0.23291902 1.5075363
00000000: 545b ecbc 9e9e d9bd 3994 11be ef7b a3be
00000010: e428 3bbf be18 56bd cf2f dbbd e2c6 7f3d
00000020: 5aee 41be 1d18 75bd d9ac 3abe bac3 903d
00000030: 30cb 45be ed90 cfbd c2c7 fbbd 030f 0dbe
00000040: d6ce 77be 8202 973c 3eda e43d 0ec0 9c3c
00000050: 6abb 03be 9731 383e f7c2 07be abb8 b2be
00000060: 5aeb b0ba cc51 963d 0bee 13bd 63c0 74bc
00000070: c306 cdbc 60be 75be ed57 c03c f026 febb
00000080: 05d3 d23a 6813 d4bc bc48 3fbe 00f9 a33f
00000090: 69da 17bc 0549 69be 3839 9dbe db9f b1ba
000000a0: a09b 2abe f361 1cbd 851c 983d 6a59 693c
000000b0: 18e5 763c 9dc9 91bd 551d 89be 7f1f 80be
000000c0: 4aa3 f3bc 7af7 6c3e 22b7 963c f72e bc3c
000000d0: f439 b8bb 28a1 b63c 825a 4bbe bc3e 7f3e
000000e0: fc49 703c 1deb da3c bd4f 39bc a995 973c
000000f0: 3fa2 b0bd 6f6a f93d 5680 963c 6b09 bc3c
00000100: 0282 03bb 0bd9 173c 026a db3b c795 723c
00000110: aaf7 c6bc 211a b8bd cb73 4d3c 741a 053e
00000120: a169 b03d 55a2 043e 0d77 393d e20d 533d
00000130: 82e8 d6bb 1eaf 213c 33b6 5e3c f419 303c
00000140: 1b80 75be 6b6b 55ba 56ef a83d 8e09 bfba
00000150: 65d3 6cbe 9d40 87bd c313 a3bd 6d5a ad3c
00000160: cbb9 7fb8 287c cabd 15f4 653c 7281 673e
00000170: 2d27 84bd e1bf 6a3e 3141 173a 2f0b 943c
00000180: 4f21 c4ba a5ea f7ba 17d5 72bd 3d5d 073c
00000190: d3f8 2bbf f5a1 aabb a1cf 8a3c 71ad 0bbb
000001a0: 4bd2 913e 3a13 8c3e 8368 75bd 73c3 56b9
000001b0: e1d5 873a 8c72 91bc bbaf 903b c72c f6bc
000001c0: 2aec 683d d9df 2fbd 6cd8 c739 165b daba
000001d0: 8ce0 3eba c43a 46ba d2a9 a13c fcdb 9e3d
000001e0: ac22 0dba 0fb9 96ba e0ed 92bd 2462 98ba
000001f0: 5365 3bbb 1443 fe3c bff0 ac3b 9dfb 083b
00000200: 00e9 28bd af70 93bd 603d 263e 653f b63d
00000210: 0d4a b33d 1f2a 383e ea92 52be be9e 8a3f
00000220: c3dd a33e a93e 633f 2706 00bf 628c 6b3f
00000230: 3713 cd3c b230 ca3d fc25 bb3e 93e0 183f
00000240: 6999 1b3e c6ed 7c3e 4edc e5bc 35af c63c
00000250: dc26 423f 3ac8 74be 3829 013f 53ad 4bbd
00000260: b6d6 2abf c6b1 823f 4af9 8c3e 771c fbbe
00000270: 4d79 4dbe bb2a cd3e 2298 873f 0440 9c3f
00000280: 970c 953d ab03 3840 723b dbbe 717b fd3c
00000290: fcc0 14be ab5d 763d 0687 ed3e cc06 0a3f
000002a0: cbf5 5f3e d759 c3bc 6e63 8ebe 0ac8 e63d
000002b0: 68f9 d53e e991 e9bb 39e5 93bd 1c05 073f
000002c0: 93b8 4ebe 58d7 42be 5a35 2c3e 2f5e 0a3d
000002d0: e199 1940 9966 abbc 3574 823e 31ca c3be
000002e0: 8295 d83e 78d9 6c3f b97e 983f ac1b ff3f
000002f0: a59c f5be 4dc1 e7be 09c7 cc3e da33 8bbf
00000300: 1fe2 373e 1733 9ebc 96ac 4d3e cf36 f3ba
00000310: bdc4 c13d 633f 9b3f 4123 98be 0d5b 03bf
00000320: a651 483f 30f1 2abd 2fce 9a3e 22c1 86bf
00000330: 1278 c6bc 11ed 48be b4e9 db3e 08c1 76be
00000340: ed96 943c be3b fd3e 5fcb e33d f431 ebbe
00000350: 7290 2fbf 105a 993f 7952 133d 02d9 75be
00000360: a566 87c0 0fa0 5dbf 1b22 d33f 5477 6e3f
00000370: fb45 393d a26e 63be bf35 2a3f 040b 8ebc
00000380: a28b e2ba 9e4a 933f 7d36 5d3f 16ea 813e
00000390: db79 23bf 9006 aa3c d703 3cbe 9439 2fc0
000003a0: c2b1 3b3f d131 bf3d d89a fb3f 7c86 0a3f
000003b0: 0439 453f ca66 ab3f f674 56be fc77 a73d
000003c0: 1e95 4a3e 0c1a 523e 9070 073f e94b e93d
000003d0: f917 983d 3968 b53e 6a10 6cbe db95 df3f
000003e0: 540e 2440 47e9 4540 f0ac 80bd 391e 64be
000003f0: ef7f 6c3f 2f20 0740 5382 6e3e f3f6 c03f
